src/sign_recognition/keypoint_classifier.tflite (tflite, 6888 bytes, 6 tensors)

sequential/dense/BiasAdd/ReadVariableOp f4 [20]
000000 b9 40 39 bd ff 06 a0 be ad 4d 97 bf aa 46 82 bf
       -0.04522774 -0.31255338 -1.182058 -1.0177815
000010 42 09 89 be 88 a6 3f bf 2c e7 73 be 51 ee 02 bf
       -0.26764876 -0.7486348 -0.23818654 -0.5114489
000020 a8 12 5e bf 37 b8 08 bf 25 b8 94 3e d1 25 a9 bf
       -0.8674722 -0.5340609 0.2904674 -1.3214666
000030 03 60 0a 3f 83 c5 7a bd f7 37 55 be db 1d a1 be
       0.5405275 -0.061223518 -0.2082213 -0.3146809
000040 79 09 11 bf 03 45 24 bf 5d e2 cc be c4 44 d0 bd
       -0.5665508 -0.64167804 -0.4001645 -0.10169366

sequential/dense_2/BiasAdd/ReadVariableOp f4 [10]
000000 66 ec ce be 76 a1 6b bf 84 f6 65 3f fd c6 7e 3f
       -0.40414733 -0.92043245 0.8982928 0.9952238
000010 b7 cf 27 be 88 2a 24 be 3a 26 4b be 32 6f 91 bf
       -0.1638783 -0.1603185 -0.19838801 -1.1362059
000020 85 e1 04 3f 25 a3 70 3e
       0.51906615 0.23499735

sequential/dense_1/BiasAdd/ReadVariableOp f4 [10]
000000 d2 1a 02 40 bc 9e 27 3f da 2f 7a 3f e6 d4 13 bd
       2.032887 0.65476584 0.97729266 -0.036091708
000010 56 3e b9 3e b6 30 5f 3e 4e f1 03 3c 1f 0f 14 3f
       0.3618037 0.21795925 0.008053137 0.5783557
000020 ce a5 28 bf 4e 83 27 3f
       -0.65878 0.6543473

sequential/dense/MatMul f4 [20, 43]
000000 6a bd a5 3e e8 66 58 3d 0a 07 50 3e ae cd 03 bf
       0.32371074 0.052832514 0.20315185 -0.5148572
000010 4c 69 86 bd d5 a4 e5 be de 90 0c be 91 7f fb be
       -0.065630525 -0.4485232 -0.13727137 -0.49120763
000020 a8 8c 24 bf 29 ed fb be 21 84 6e bf da d4 4b 3e
       -0.64277124 -0.49204376 -0.9317036 0.19905415
000030 d4 29 11 be 0a 95 d6 3d 56 07 65 3d e1 bd ab 3c
       -0.14176112 0.10477646 0.0559152 0.020964565
000040 9a aa ea 3c 36 ae 9d bd 4e 2d 48 bd 4c 0d 8e 3e
       0.028645802 -0.07699244 -0.04887133 0.2774452
000050 06 6c 14 be eb 72 22 3d 1a c7 0c 3e 5d 39 7a bd
       -0.14494333 0.039660376 0.13747826 -0.061089862
000060 bc 3e 68 3e be 32 4f be 59 22 81 3e 9b ac 8a 3e
       0.22680181 -0.202342 0.25221518 0.27084813
000070 4c 48 a5 3d e5 dd f4 3d ee 4c 94 3e 01 24 b2 bd
       0.0807043 0.119563855 0.28964943 -0.086982735
000080 98 c5 cf 3e 11 84 27 be d4 f4 d6 3e 86 41 be 3e
       0.4058044 -0.16358973 0.41983664 0.37159365
000090 45 52 b2 3e 2b ac 2e 3e 2f d6 ee 3e 47 ec 8a 3d
       0.34828392 0.17057864 0.46647784 0.067833476
0000a0 92 00 18 3f 2d 8e 62 bd 15 c7 2f 3f aa 94 0a be
       0.5937587 -0.05531137 0.6866315 -0.13533273
0000b0 b0 20 89 be 1a c9 5f 3e 54 80 54 bf 68 0d ef 3e
       -0.2678275 0.21854058 -0.83008313 0.46689916
0000c0 d5 31 2a bf 4d ee 93 3d c0 55 2d bf 8a 79 25 ba
       -0.6648229 0.07223187 -0.6770897 -0.0006312361
0000d0 21 e1 f1 be c3 da 6c bf a5 d9 c6 be 3f e0 bb bc
       -0.47242072 -0.92521304 -0.38837925 -0.022934077
0000e0 1b 7e 52 be 4f bb b5 3d 2f 9c 89 3d ce e6 62 3e
       -0.20555918 0.08873617 0.06719243 0.22158358
0000f0 df b5 3b 3e 33 04 4d 3e 63 c4 63 be 7e 0a a1 3d
       0.18331097 0.20021133 -0.22242884 0.07863329
000100 9a 9b 09 be 5a 82 17 3e a5 d6 27 3e 51 2e c7 3e
       -0.13438264 0.14795819 0.16390474 0.38902524
000110 f0 ca 81 3e fb e5 c8 3e 8f 2f 23 be 53 c9 87 bc
       0.25350142 0.3923796 -0.15936111 -0.016575491
000120 24 cc 78 be c6 09 d7 3b d2 46 85 3b 81 43 83 3e
       -0.24296623 0.0065624444 0.0040672803 0.2563744
000130 ce bf e7 3d d6 42 f3 3d f2 d0 27 3a 11 ad 8f 3d
       0.11315881 0.11877982 0.000640168 0.07015432
000140 7a a1 90 be c0 52 0d 3e ca c5 b6 bb ed 94 6b 3e
       -0.28248197 0.13801098 -0.0055777775 0.2300603
000150 9a e9 72 3e 29 a9 51 3e 9a 17 3a 3e 02 82 72 be
       0.23721924 0.20474686 0.18173066 -0.23682407
000160 94 ba 57 be eb 25 14 3e b7 d0 1d be ee db 4e be
       -0.21067268 0.1446759 -0.1541165 -0.20201084
000170 89 c2 1f be 96 91 0f bf a2 c3 1d be 4a d4 87 bf
       -0.15601553 -0.5608152 -0.15406659 -1.061166
000180 ce 52 14 bc 72 40 f7 bd 80 53 24 be 11 72 19 3e
       -0.009052945 -0.12072839 -0.16047478 0.14984919
000190 07 35 db bd 1a 83 54 3e 15 4c 15 3d dd 07 46 3e
       -0.107034735 0.20753136 0.03644951 0.19338937
0001a0 04 f4 d3 3d 21 48 6a be 90 ec b9 bd 40 46 89 3d
       0.10349277 -0.22879077 -0.09078324 0.06702852
0001b0 cb 82 e1 bd c5 88 21 3e 06 02 a1 bc 56 d4 ce 3d
       -0.11011275 0.1577483 -0.019654285 0.100990936
0001c0 60 94 6c bc de 12 87 be e3 6d 15 be be ad c4 3c
       -0.014439672 -0.26381582 -0.145927 0.024008628
0001d0 0f dd 4c be 40 2f 1d 3e e2 f9 25 be 9c 76 84 3d
       -0.20006202 0.15350056 -0.16208604 0.064679354
0001e0 1d e2 db bd 9b 99 12 be 22 23 80 be e7 25 6e bc
       -0.10736487 -0.14316408 -0.25026804 -0.014535404
0001f0 91 86 ab be d4 f6 04 3e da 46 81 be 35 d6 a8 3d
       -0.33501104 0.12984782 -0.25249368 0.08243982
000200 d2 fb 73 be d1 b2 df 3d 34 f9 e2 3d 5c 38 05 be
       -0.2382653 0.109227784 0.11082688 -0.1300978
000210 28 a7 b1 3d c5 48 cb bd b3 47 2a be f6 d7 a7 bd
       0.08674461 -0.09925989 -0.16628914 -0.08195488
000220 d2 1b 12 bf 86 33 9a bd fd 68 4f bf 9d d5 da bc
       -0.570737 -0.075293586 -0.81019574 -0.026713187
000230 53 fc da 3d 1f d2 4d bd 3f c0 91 3d 9e 35 02 ba
       0.10692658 -0.050249215 0.07116746 -0.0004967096
000240 2b 74 eb bc be de 56 3d d7 2a e9 bd fc b7 8f 3d
       -0.028741917 0.052458517 -0.11385124 0.07017514
000250 b1 b2 45 3d 36 b8 33 bd 05 33 e2 3c 04 d5 07 bd
       0.048266117 -0.04387685 0.027612219 -0.033162132
000260 7f 81 fb bc 8f 29 fa ba 03 1a 08 be 1e b4 19 3d
       -0.030701397 -0.0019085872 -0.13291173 0.03752529
000270 a9 97 03 3d 9b 99 e8 bc fc e7 2f 3e c3 18 4d bd
       0.032127056 -0.028393557 0.17178339 -0.050072443
000280 da 5a e5 3e c2 7f 21 be cb b4 5a 3f 95 cb ce bd
       0.44795877 -0.15771392 0.8543212 -0.10097424
000290 7e 8b ca 3c f0 56 4c bd 6a 7f 3b 3e 7c 15 84 bd
       0.024724718 -0.049887598 0.18310323 -0.0644941
0002a0 b5 dc 13 3f 87 0b 24 be 81 7a 6e 3f 78 e1 58 be
       0.5775865 -0.16020022 0.93155676 -0.2117976
0002b0 6f 43 d2 3a 20 b7 20 3d d5 11 0d be fd c4 c7 bc
       0.0016041825 0.03923714 -0.13776334 -0.024385924
0002c0 e0 14 ab 3e fb ad bb bc 6c 4a 35 3e d9 33 89 3d
       0.33414364 -0.022910109 0.17704171 0.06699342
0002d0 46 0f c6 3d 4b fe 8b 3d 93 6b 57 3d 5f 0e 8c bd
       0.09670882 0.06835612 0.052592825 -0.068386786
0002e0 95 91 04 3e a3 f1 64 3b b8 06 b5 3d 50 9a 5b ba
       0.1294616 0.0034934066 0.08839172 -0.00083771814
0002f0 dc d6 a1 3d d0 ca a0 ba a4 10 5d 3d f7 93 a4 3a
       0.07902309 -0.0012267474 0.053970948 0.0012556304
000300 d2 19 eb 3d da 27 12 3d 02 e1 94 3d 8d 99 f8 3b
       0.11479534 0.035682537 0.07269479 0.007586664
000310 de ea db 3d e3 11 54 bd 19 d5 d0 bf 2e a1 6e bb
       0.10738157 -0.05177487 -1.6315032 -0.0036411989
000320 99 55 01 3e de 8e 0e 3d 4c 90 ba 3d 67 78 88 bc
       0.12630309 0.034804218 0.09109554 -0.016658975
000330 19 c5 fe 3d a9 3e 00 be 48 88 d5 3d 4a 19 17 3d
       0.12439937 -0.12523903 0.10426384 0.036889352
000340 ce 4f 07 3e dd 5b 1e 3d ca 82 d0 3d a8 0b b8 ba
       0.13214037 0.038661826 0.10181196 -0.001404156
000350 5b 51 fe 3d cc 17 6c bc 5e 52 16 3e 76 19 0e bd
       0.12417861 -0.0144099705 0.14679858 -0.03469225
000360 70 56 e3 3d d2 b5 5c be e5 04 da 3e 60 5b 1d bf
       0.11100471 -0.21553734 0.4258186 -0.6146755
000370 40 b4 fe 3e d5 44 f6 be e3 97 59 3f 90 e9 1f bf
       0.49746895 -0.4809939 0.84997386 -0.62465763
000380 a4 4b 62 3f b5 ee 70 be f0 71 8b 3d 41 fc c7 bd
       0.8839667 -0.2352856 0.06808841 -0.097649105
000390 10 d3 4a be 37 65 5d 3d af 5a 2c be 4d cb e2 3d
       -0.19807076 0.054051604 -0.16831468 0.11073933
0003a0 ec 9f f3 bd 0b 1f f3 3d 45 b6 f4 3d 11 96 80 bd
       -0.11895737 0.11871155 0.11948828 -0.06278623
0003b0 d6 21 9e 3b 78 11 de 3c 7d ba 32 bd af f6 16 3d
       0.004825811 0.02710794 -0.04363488 0.03685635
0003c0 b6 bd 50 bd fb 80 8f 3c c4 97 2f 3d 60 a8 0c 3d
       -0.050962172 0.017517557 0.042869344 0.034340262
0003d0 71 ff c2 bd cf c8 13 3d fe c7 18 be ca 9e 52 3d
       -0.09521378 0.036080178 -0.14920041 0.051420964
0003e0 d0 a1 65 be 50 75 d2 3d 8c 33 b9 bd 0b 62 94 3d
       -0.22425008 0.10276282 -0.09043035 0.07245263
0003f0 5b 8f b6 bd c9 26 1c 3d 82 98 8e be c8 27 ca 3d
       -0.08914062 0.038122926 -0.2785073 0.09870869

sequential/dense_1/MatMul f4 [10, 20]
000000 c9 c2 9a be b4 35 05 bf 55 77 bb 3e 9b d5 18 bf
       -0.30226734 -0.5203507 0.3661448 -0.59700936
000010 72 77 4b 3f 40 63 c8 be 69 bb 36 3f 89 51 54 3e
       0.79479134 -0.39138222 0.71379715 0.20734228
000020 0a 69 8a bf fa e1 5a be 8e a9 1a 3f 7c 46 9b bf
       -1.0813305 -0.21375266 0.6041497 -1.2130885
000030 fd ce bc 3e 6b df 0f 3f eb ee 98 3e 98 4f 56 be
       0.3687667 0.56200284 0.2986978 -0.209288
000040 0b 37 7d be 70 3d b1 bd 36 fc f2 3e ec 68 99 bd
       -0.24728028 -0.086542964 0.47458047 -0.074907154
000050 0d ef 8e bf 54 5f bb 3e 95 7a f7 be a3 0d 1e 3d
       -1.1166703 0.36596167 -0.4833571 0.038587224
000060 95 11 60 be 90 5c 5a 3f 49 91 81 be 97 3d 34 3e
       -0.21881707 0.8529749 -0.25306156 0.1760162
000070 da e9 42 3f fa 14 b0 be 9e 45 2e 3d 2e 90 71 3f
       0.7613808 -0.34391004 0.04254686 0.94360626
000080 70 df 0c 3f 20 dd 3b 3f 3d 49 65 3c db ed 08 3f
       0.5502844 0.73384285 0.013994512 0.5348794
000090 3f cc 58 3e 29 f7 f5 3e ee 7d 2e bf 4d 94 96 3f
       0.21171664 0.4804013 -0.68160903 1.1764008
0000a0 50 dd 0b 3f 31 2a 5a 3f 98 4e 34 3e ac b8 02 bd
       0.5463457 0.8522063 0.17608106 -0.031914398
0000b0 2d 60 87 bf 15 45 69 3d 7e 32 28 bf 4c ca eb 3d
       -1.0576226 0.056950647 -0.65702045 0.115131944
0000c0 ed 67 9c 3e 10 82 d4 be 1e b8 9d 3f a2 2d 66 3e
       0.3054804 -0.4150548 1.2321813 0.22478345
0000d0 e0 09 51 bc 00 cf a5 bd db c5 73 3f 60 a9 97 bb
       -0.012758702 -0.08096123 0.9522378 -0.0046283454
0000e0 bd 9e 26 be 23 76 be 3c c7 c1 1b bf f6 ef 1f be
       -0.16271491 0.023249691 -0.60842556 -0.15618882
0000f0 ea fa 4e 3f 65 e5 0c 3f ac 8a d2 3e a8 8d 52 3f
       0.80851614 0.5503753 0.41121423 0.822474
000100 ef d3 db 3d da b7 dc 3e 5e 50 5c bd 84 0a b7 bd
       0.107337825 0.43109018 -0.05378758 -0.089375526
000110 e3 8e 49 3f e4 9f b3 3f 35 0b 04 bd 94 b8 f8 be
       0.7873365 1.403317 -0.03223725 -0.48578322
000120 86 cb 4a 3f eb 44 8e bc 9a 3c 84 3e 0b 8f 5b bf
       0.792168 -0.017366847 0.25827485 -0.8576514
000130 a7 e7 86 3e 89 62 6e bf 75 fb c8 3e 42 18 84 3e
       0.26348612 -0.931191 0.39254346 0.25799757
000140 2f ec 03 3d f7 a8 ba bd 17 60 b8 3f 37 6a 45 3f
       0.032207664 -0.09114259 1.4404324 0.77115196
000150 b0 82 5c be 8d 60 60 3f b7 f2 97 be 42 44 05 bf
       -0.21534228 0.87647325 -0.29677364 -0.5205728
000160 0e 0a 86 3f 0b cd 2f be 87 a7 ec 3d c3 a9 08 3f
       1.0471818 -0.17168061 0.11555391 0.53384036
000170 30 fd f4 3d 6b 50 fc 3e 3a 7a 0e 3e f2 c9 d2 3e
       0.11962354 0.49280104 0.13913813 0.41169697
000180 b3 4e 4b 3f 32 68 66 3e 5c be 17 3f 86 61 26 3f
       0.7941696 0.22500685 0.5927484 0.6499256
000190 87 8d b4 be 55 a6 15 bf 7f 96 41 3d f1 2d ce 3e
       -0.35264227 -0.5845693 0.047262665 0.40269426
0001a0 09 cf 08 40 e0 1e 07 bd 99 de f0 3f b2 18 be bd
       2.1376364 -0.03298843 1.8817931 -0.09282054
0001b0 61 64 29 bf 08 9d d3 3f c1 10 37 3d 53 8c 8a bc
       -0.6616879 1.6532297 0.044693712 -0.016912615
0001c0 c3 05 dc bd d7 0a 17 3f f8 b8 f4 3c f5 8e 8d 3f
       -0.107432865 0.59000915 0.029873356 1.1059252
0001d0 64 ab 26 3e 21 1d ff 3e 0f 13 90 3f 67 f7 ef 3e
       0.16276318 0.4982691 1.1255816 0.4686844
0001e0 8e 22 a6 3e 9b ec 92 3f ed 6b 4c 3f e1 d7 03 3e
       0.32448238 1.1478456 0.7985218 0.1287532
0001f0 69 e9 e0 3e a1 bc 14 3f d1 be e9 3e df 49 c6 3f
       0.43928078 0.58100325 0.45653394 1.5491294
000200 74 19 55 3f 09 19 a9 3f 56 68 24 3f f9 69 8a 3f
       0.83241963 1.3210765 0.64221704 1.081359
000210 94 3c 93 bd 81 39 d5 3d e3 74 7d 3f bd 72 e2 3e
       -0.07189289 0.104113586 0.9900648 0.44228163
000220 37 42 00 bd 0a 6a 8e 3f 38 6e b9 3c e9 36 40 bd
       -0.031313147 1.112611 0.022635564 -0.046927366
000230 6f 5f 3f 3f 7f c4 fd be f7 ae 90 3e 90 7b 24 3f
       0.74754995 -0.49563977 0.28258488 0.6425104
000240 0a 48 55 be 61 1e 21 3f a6 ce 22 bd af 7f 17 bc
       -0.20828262 0.6293698 -0.039747857 -0.009246751
000250 f5 05 8a 3f 6c 53 0a 3f 56 dc e3 bc 30 59 2d 3f
       1.0783068 0.5403354 -0.027815025 0.67714214
000260 08 1f bc 3e 93 3e 67 3f 3c 3e 6b be a3 bb a9 3e
       0.36742425 0.90329856 -0.2297296 0.33150968
000270 e4 3a 3c 3f 3e 27 7a 3e 86 88 c3 3d e0 f9 ba 3e
       0.7352736 0.24429032 0.09547524 0.36518764
000280 8b ca af 3e fa a0 a5 be 5b 4f 63 be 8d 1e 71 3f
       0.34334216 -0.32349378 -0.2219824 0.9418724
000290 0b 12 c0 3e bb 15 5f 3f 81 71 c2 3e 7e 0a 92 3e
       0.37513766 0.87142533 0.37977222 0.2852363
0002a0 b6 c5 00 3d 89 66 93 3f 29 14 39 3f 99 77 0a 3f
       0.03143855 1.1515666 0.72296387 0.5408874
0002b0 73 36 b3 3e 2b 59 6b 3d 56 b5 76 3e 99 2b 0c 3f
       0.3500248 0.057458084 0.24092612 0.54754025
0002c0 11 78 ab be 83 2e a7 3e bb 0d cd 3d f6 fc 44 3f
       -0.3349004 0.32652673 0.100123845 0.7694849
0002d0 7f 30 e6 3e 6e 66 a3 3d c4 91 c1 be b5 1c b1 bf
       0.44958875 0.07978521 -0.37806523 -1.3836886
0002e0 fc bf 9c 3f dc 52 83 3e 2b 45 91 3f 20 9e 57 3e
       1.2246089 0.25649154 1.1349233 0.21056414
0002f0 e1 9b 65 3e 6f e8 d9 be 0c b2 ab 3e 51 24 77 bd
       0.22422744 -0.42560145 0.33534276 -0.06033737
000300 e1 1a 04 3f ab 7d 00 be 07 94 93 3e 64 d8 73 bf
       0.51603514 -0.12547939 0.28823873 -0.9525206
000310 35 79 54 bd cc 3e 32 be 05 55 96 3f 75 6e 8d 3e
       -0.051873405 -0.17406768 1.1744696 0.27623335

sequential/dense_2/MatMul f4 [10, 10]
000000 52 e4 c8 be a1 f2 b8 be 99 cb cb bf 3b 44 0e 3f
       -0.39236695 -0.3612261 -1.5921508 0.5557286
000010 72 58 d8 be 88 f3 53 3f 78 e1 25 3f c1 99 33 3f
       -0.42254978 0.82793474 0.64797163 0.70156485
000020 77 3a be 3e a9 cc 2e bd 36 33 a9 be 5e c6 27 bf
       0.3715398 -0.042675648 -0.33046883 -0.6553706
000030 c4 cf f2 be 40 d7 15 3f e1 f1 8c bc 2a 26 3d 3f
       -0.47424138 0.5853157 -0.01720518 0.7388636
000040 22 22 41 3f 7f f8 12 bf 65 b3 9c 3f 7d 90 0c be
       0.7544271 -0.57410425 1.2242247 -0.13726993
000050 99 c2 c8 3e b6 0e 72 3f 0d 96 c9 3e 2b 93 aa be
       0.39210966 0.945537 0.39372292 -0.33315405
000060 aa c6 2e be 2b 50 d6 be cb 92 f7 bf e5 f8 8a bd
       -0.17067972 -0.41858038 -1.9341673 -0.06785754
000070 46 ad 21 bf 2f 93 13 bf 25 c2 11 3f 8f 59 5d bf
       -0.6315502 -0.5764646 0.56936866 -0.8646478
000080 78 0d f1 3e 6c 5b df 3d f0 b6 8d bf 14 54 07 c0
       0.47080588 0.10906109 -1.1071453 -2.1145067
000090 d7 cb 9c 3e fb 60 ba be 6a e3 fd be 8a 9a aa bd
       0.30624267 -0.36402115 -0.49587566 -0.08330257
0000a0 12 60 38 bf 10 48 30 3f bb 0a 55 3c b1 79 f2 bd
       -0.7202159 0.6885996 0.013003047 -0.11839617
0000b0 e3 29 2e 3f bb 76 00 be e4 53 ba 3d 5b af e6 3e
       0.68032664 -0.12545292 0.09098032 0.4505566
0000c0 00 1c 4c bf 8e ca 37 bf c8 bd 05 bf f8 3b 08 bd
       -0.79730225 -0.7179345 -0.5224271 -0.033260316
0000d0 29 04 2f 3f fd bb 95 bd ba 04 30 3d 51 43 63 bf
       0.6836572 -0.073112465 0.042973258 -0.8877459
0000e0 c7 c2 4e 3f d1 27 4c 3e c5 3d a3 bd 6e 48 a0 bf
       0.80765957 0.19937064 -0.07970766 -1.2522104
0000f0 54 4d 2f bf ec bc 12 be bd ef 40 bf 1d b7 53 3f
       -0.6847737 -0.1432988 -0.7536581 0.82701284
000100 2b 79 4e 3f ab d6 f5 be bf 1f 48 bf 11 ef 23 3f
       0.8065364 -0.4801534 -0.7817344 0.6403666
000110 8f 90 50 bd 80 19 b4 3e d2 16 98 bf 57 01 39 3f
       -0.05091911 0.35175705 -1.1881964 0.7226767
000120 45 72 01 3f 1c 4b 17 3f 9f ca 2f bf 3b d8 e7 be
       0.50564986 0.5909898 -0.6866855 -0.45282158
000130 b0 5b ab 3e 13 1a 0c be 3e 99 b9 3e 20 ae 35 3f
       0.3346839 -0.13681822 0.36249727 0.7096882
000140 1b 89 19 3f 0a 6f 97 be e8 8e 6f bf f8 4d e0 bf
       0.5997483 -0.29576904 -0.9357743 -1.7523794
000150 9f 56 40 bf e8 87 96 3f 0e 45 fd bf a1 ce 4e 3e
       -0.75132173 1.1760225 -1.9786699 0.2019601
000160 cb b3 da bf 1d 25 cb 3e c4 2e 91 3f e2 8a 03 c0
       -1.7086118 0.39676753 1.1342397 -2.0553517
000170 9b 40 92 bd ba cf 09 bf 61 6d be bf 2d b5 c5 3c
       -0.07141229 -0.5383259 -1.487713 0.024134243
000180 8d 34 93 3e 0f 78 cf bf 6b d1 f9 be f9 b0 4c 3f
       0.2875103 -1.6208514 -0.48792586 0.7995754
